# Ultralytics AGPL-3.0 License - https://ultralytics.com/license

nc: 80
channels: 4
scales:
  n: [0.33, 0.25, 1024]
  s: [0.33, 0.50, 1024]
  m: [0.67, 0.75, 1024]
  l: [1.00, 1.00, 1024]
  x: [1.33, 1.25, 1024]

backbone:
  - [-1, 1, nn.Identity, []]
  - [0, 1, ChannelSlice, [0, 3]]
  - [-1, 1, Conv, [64, 6, 2, 2]]
  - [-1, 1, Conv, [128, 3, 2]]
  - [-1, 3, C3, [128]]
  - [-1, 1, Conv, [256, 3, 2]]
  - [-1, 6, C3, [256]]
  - [-1, 1, Conv, [512, 3, 2]]
  - [-1, 9, C3, [512]]
  - [-1, 1, Conv, [1024, 3, 2]]
  - [-1, 3, C3, [1024]]
  - [0, 1, ChannelSlice, [3, 4]]
  - [-1, 1, Conv, [64, 6, 2, 2]]
  - [-1, 1, Conv, [128, 3, 2]]
  - [-1, 3, C3, [128]]
  - [-1, 1, Conv, [256, 3, 2]]
  - [-1, 6, C3, [256]]
  - [-1, 1, Conv, [512, 3, 2]]
  - [-1, 9, C3, [512]]
  - [-1, 1, Conv, [1024, 3, 2]]
  - [-1, 3, C3, [1024]]
  - [[6, 16], 1, Concat, [1]]
  - [[8, 18], 1, Concat, [1]]
  - [[10, 20], 1, Concat, [1]]
  - [-1, 1, SPPF, [1024, 5]]

head:
  - [-1, 1, Conv, [512, 1, 1]]
  - [-1, 1, nn.Upsample, [None, 2, "nearest"]]
  - [[-1, 22], 1, Concat, [1]]
  - [-1, 3, C3, [512, False]]
  - [-1, 1, Conv, [256, 1, 1]]
  - [-1, 1, nn.Upsample, [None, 2, "nearest"]]
  - [[-1, 21], 1, Concat, [1]]
  - [-1, 3, C3, [256, False]]
  - [-1, 1, Conv, [256, 3, 2]]
  - [[-1, 29], 1, Concat, [1]]
  - [-1, 3, C3, [512, False]]
  - [-1, 1, Conv, [512, 3, 2]]
  - [[-1, 25], 1, Concat, [1]]
  - [-1, 3, C3, [1024, False]]
  - [[32, 35, 38], 1, Detect, [nc]]
